…
agraph. Four theorems describe our key contributions. While most of the proofs are short, a longer proof is in appendix A.\n\nAppreciated reviewers' valuable comments and reading. \n", "title": "Revision paper has been submitted."}, "H1lEp0r7T7": {"type": "rebuttal", "replyto": "HJgB6aBXa7", "comment": "Using TensorFlow backend.\n60000 train samples\n10000 test samples\n_________________________________________________________________\nLayer (type)                 Output Shape              Param #\n=================================================================\ndense_1 (Dense)              (None, 300)               235500\n_________________________________________________________________\nbatch_normalization_1 (Batch (None, 300)               1200\n_________________________________________________________________\nactivation_1 (Activation)    (None, 300)               0\n_________________________________________________________________\ndense_2 (Dense)              (None, 300)               90300\n_________________________________________________________________\nbatch_normalization_2 (Batch (None, 300)               1200\n_________________________________________________________________\ndense_3 (Dense)              (None, 10)                3010\n=================================================================\nTotal params: 331,210\nTrainable params: 330,010\nNon-trainable params: 1,200\n_________________________________________________________________\nTrain on 60000 samples, validate on 10000 samples\nEpoch 1/30\n", "title": "Here is the all Dense configuration"}, "HJgB6aBXa7": {"type": "rebuttal", "replyto": "S1eiR7w-67", "comment":
…
n any way. In our testing, without BatchNormlization, it is even hard to achieve 98%. This reminds us many disappoint results on MNIST from other models such as Spike Neural Network. The intrinsic limitation of MLP may be the reason for the poor results. The model itself is not wrong. \n\nBelow is the configuration.\n\nUsing TensorFlow backend.\n60000 train samples\n10000 test samples\n_________________________________________________________________\nLayer (type)                 Output Shape              Param #\n=================================================\ndense_1 (Dense)              (None, 300)             235500\n_________________________________________________________________\nbatch_normalization_1 (Batch (None, 300)   1200\n_________________________________________________________________\nactivation_1 (Activation)    (None, 300)           0\n_________________________________________________________________\nsynapse_1 (Synapse)          (None, 300)          90000\n_________________________________________________________________\nbatch_normalization_2 (Batch (None, 300)   1200\n_________________________________________________________________\ndense_2 (Dense)              (None, 10)                3010\n=================================================\nTotal params: 330,910\nTrainable params: 329,710\nNon-trainable params: 1,200\n_________________________________________________________________\nTrain on 60000 samples, validate on 10000 samples\nEpoch 1/30\n", "title": "Comparison Testing"}, "B1lc0btMpQ": {"type": "rebuttal", "replyto": "S1eiR7w-67", "comment": " - It wasn't clear from your di
…
